…
      "predictions_dir": "debug_predictions",
      "visualizations_dir": "debug_visualizations",
      "analysis_dir": "debug_analysis",
      "logs_dir": "debug_logs"
    }
  },
  "timestamp": "2025-06-09_19-17-53",
  "results_dir": "/home/maxboels/projects/surl/results/2025-06-07_18-44-58/ext_eval_2025-06-09_19-17-53",
  "pretrained_dir": "/home/maxboels/projects/surl/results/2025-06-07_18-44-58",
  "mode": "enhanced_evaluation_with_clinical_analysis",
  "method_1_autoregressive_il": {
    "status": "success",
    "model": "AutoregressiveILModel(\n  (gpt2): GPT2LMHeadModel(\n    (transformer): GPT2Model(\n      (wte): Embedding(1, 768)\n      (wpe): Embedding(1024, 768)\n      (drop): Dropout(p=0.1, inplace=False)\n      (h): ModuleList(\n        (0-5): 6 x GPT2Block(\n          (ln_1): LayerNorm((768,), eps=1e-05, elementwise_affine=True)\n          (attn): GPT2SdpaAttention(\n            (c_attn): Conv1D(nf=2304, nx=768)\n            (c_proj): Conv1D(nf=768, nx=768)\n            (attn_dropout): Dropout(p=0.1, inplace=False)\n            (resid_dropout): Dropout(p=0.1, inplace=False)\n          )\n          (ln_2): LayerNorm((768,), eps=1e-05, elementwise_affine=True)\n          (mlp): GPT2MLP(\n            (c_fc): Conv1D(nf=3072, nx=768)\n            (c_proj): Conv1D(nf=768, nx=3072)\n            (act): NewGELUActivation()\n            (dropout): Dropout(p=0.1, inplace=False)\n          )\n        )\n      )\n      (ln_f): LayerNorm((768,), eps=1e-05, elementwise_affine=True)\n    )\n    (lm_head): Identity()\n  )\n  (frame_projection): Sequential(\n    (0): Linear(in_features=1024, out_features=768, bias=True)\n    (1): LayerNorm((768,), eps=1e-05, elementwise_affine=True)\n    (2): Dropout(p=0.1, inplace=False)\n  )\n  (next_frame_head): Sequential(\n    (0): Linear(in_features=768, out_features=768, bias=True)\n    (1): ReLU()\n    (2): Dropout(p=0.1, inplace=False)\n    (3): Linear(in_features=768, out_features=384, bias=True)\n    (4): ReLU()\n    (5): Dropout(p=0.1, inplace=False)\n    (6): Linear(in_features=384, out_features=1024, bias=True)\n  )\n  (action_prediction_head): Sequential(\n    (0): Linear(in_features=768, out_features=768, bias=True)\n    (1): ReLU()\n    (2): Dropout(p=0.1, inplace=False)\n    (3): Linear(in_features=768, out_features=384, bias=True)\n    (4): ReLU()\n    (5): Dropout(p=0.1, inplace=False)\n    (6): Linear(in_features=384, out_features=100, bias=True)\n  )\n  (phase_prediction_head): Sequential(\n    (0): Linear(in_features=768, out_features=384, bias=True)\n    (1): ReLU()\n    (2): Dropout(p=0.1, inplace=False)\n    (3): Linear(in_features=384, out_features=7, bias=True)\n  )\n)",
    "model_path": "/home/maxboels/projects/surl/results/2025-06-07_18-44-58/2025-06-07_18-44/checkpoints/autoregressive_il_best_epoch_1.pt",
    "model_type": "AutoregressiveILModel",
    "approach": "Pure causal frame generation \u2192 action prediction",
    "method_description": "Autoregressive IL without action conditioning",
    "loaded_from_pretrained": true,
    "config_used": {
      "hidden_dim": 768,
      "embedding_dim": 1024,
      "n_layer": 6,
      "num_action_classes": 100,
      "num_phase_classes": 7,
      "max_length": 1024,
      "dropout": 0.1
    }
  },
  "method_2_conditional_world_model": {
    "status": "success",
    "world_model": "ConditionalWorldModel(\n  (state_projection): Sequential(\n    (0): Linear(in_features=1024, out_features=768, bias=True)\n    (1): LayerNorm((768,), eps=1e-05, elementwise_affine=True)\n    (2): Dropout(p=0.1, inplace=False)\n  )\n  (action_embedding): Sequential(\n    (0): Linear(in_features=100, out_features=128, bias=True)\n    (1): ReLU()\n    (2): Dropout(p=0.1, inplace=False)\n  )\n  (combined_projection): Sequential(\n    (0): Linear(in_features=896, out_features=768, bias=True)\n    (1): LayerNorm((768,), eps=1e-05, elementwise_affine=True)\n    (2): Dropout(p=0.1, inplace=False)\n  )\n  (transformer): TransformerEncoder(\n    (layers): ModuleList(\n      (0-5): 6 x TransformerEncoderLayer(\n        (self_attn): MultiheadAttention(\n          (out_proj): NonDynamicallyQuantizableLinear(in_features=768, out_features=768, bias=True)\n        )\n        (linear1): Linear(in_features=768, out_features=3072, bias=True)\n        (dropout): Dropout(p=0.1, inplace=False)\n        (linear2): Linear(in_features=3072, out_features=768, bias=True)\n        (norm1): LayerNorm((768,), eps=1e-05, elementwise_affine=True)\n        (norm2): LayerNorm((768,), eps=1e-05, elementwise_affine=True)\n        (dropout1): Dropout(p=0.1, inplace=False)\n        (dropout2): Dropout(p=0.1, inplace=False)\n      )\n    )\n  )\n  (next_state_head): Sequential(\n    (0): Linear(in_features=768, out_features=768, bias=True)\n    (1): ReLU()\n    (2): Dropout(p=0.1, inplace=False)\n    (3): Linear(in_features=768, out_features=384, bias=True)\n    (4): ReLU()\n    (5): Dropout(p=0.1, inplace=False)\n    (6): Linear(in_features=384, out_features=1024, bias=True)\n  )\n  (reward_heads): ModuleDict(\n    (phase_progression): Sequential(\n      (0): Linear(in_features=768, out_features=384, bias=True)\n      (1): ReLU()\n      (2): Dropout(p=0.1, inplace=False)\n      (3): Linear(in_features=384, out_features=1, bias=True)\n    )\n    (phase_completion): Sequential(\n      (0): Linear(in_features=768, out_features=384, bias=True)\n      (1): ReLU()\n      (2): Dropout(p=0.1, inplace=False)\n      (3): Linear(in_features=384, out_features=1, bias=True)\n    )\n    (phase_initiation): Sequential(\n      (0): Linear(in_features=768, out_features=384, bias=True)\n      (1): ReLU()\n      (2): Dropout(p=0.1, inplace=False)\n      (3): Linear(in_features=384, out_features=1, bias=True)\n    )\n    (action_probability): Sequential(\n      (0): Linear(in_features=768, out_features=384, bias=True)\n      (1): ReLU()\n      (2): Dropout(p=0.1, inplace=False)\n      (3): Linear(in_features=384, out_features=1, bias=True)\n    )\n    (safety): Sequential(\n      (0): Linear(in_features=768, out_features=384, bias=True)\n      (1): ReLU()\n      (2): Dropout(p=0.1, inplace=False)\n      (3): Linear(in_features=384, out_features=1, bias=True)\n    )\n    (efficiency): Sequential(\n      (0): Linear(in_features=768, out_features=384, bias=True)\n      (1): ReLU()\n      (2): Dropout(p=0.1, inplace=False)\n      (3): Linear(in_features=384, out_features=1, bias=True)\n    )\n    (risk_penalty): Sequential(\n      (0): Linear(in_features=768, out_features=384, bias=True)\n      (1): ReLU()\n      (2): Dropout(p=0.1, inplace=False)\n      (3): Linear(in_features=384, out_features=1, bias=True)\n    )\n  )\n  (phase_prediction_head): Sequential(\n    (0): Linear(in_features=768, out_features=384, bias=True)\n    (1): ReLU()\n    (2): Dropout(p=0.1, inplace=False)\n    (3): Linear(in_features=384, out_features=7, bias=True)\n  )\n  (value_head): Sequential(\n    (0): Linear(in_features=768, out_features=384, bias=True)\n    (1): ReLU()\n    (2): Dropout(p=0.1, inplace=False)\n    (3): Linear(in_features=384, out_features=1, bias=True)\n  )\n)",
    "world_model_path": "/home/maxboels/projects/surl/results/2025-06-07_18-44-58/2025-06-07_18-44/checkpoints/world_model_best_epoch_2.pt",
    "rl_models": {
      "ppo": {
        "status": "success",
        "model": "<stable_baselines3.ppo.ppo.PPO object at 0x755258124c80>",
        "model_path": "/home/maxboels/projects/surl/results/2025-06-07_18-44-58/2025-06-07_18-44/rl_world_model_simulation/ppo_conditional_world_model.zip",
…
